SPPOM_model.onnx (onnx, 7131 bytes, 5 tensors)

fc1.weight f4 [50, 5]
-0.32446864 -0.4401667 -0.42947316 -0.29589394 -0.067655146 -0.14075816 -0.41784918 -0.1139355
-0.18166581 -0.2483062 0.4354711 0.3188454 -0.10507824 -0.01326536 -0.28053147 0.5623222
0.04629435 0.28146666 0.1991151 -0.3712552 0.093277164 -0.17510888 0.46334985 -0.24793778
0.0003176441 1.0494236 -0.19064264 0.32313243 0.41714787 0.0010017068 -0.53811425 0.15151525
-0.0706246 0.03966229 0.36899143 -0.26219136 0.3707657 0.3099652 0.11548225 0.057878386
-0.053878155 0.094580606 0.33653986 0.37528774 0.11616338 0.23762196 -0.16047293 0.11461892
-0.94663125 0.4518577 -0.78473926 0.1257182 0.22071362 0.023236908 0.027002595 0.5468424
0.21641675 0.29363078 0.049834024 0.43124956 -0.8427266 -0.03572043 0.043015182 0.0049525104
0.05766108 -0.048568234 -0.07142071 0.2937567 0.26015294 0.42461658 -1.1641582 0.13284752
-0.00034557917 0.0003892016 0.007002796 0.45747304 -0.3011454 0.0130833695 0.0414665 0.1096172
-0.1730247 0.04843664 0.11086367 -0.0805344 0.1442736 -1.7319196 -0.056825884 -0.013156089
0.105766155 -0.10542739 -0.29333404 -0.12550193 -0.107407495 0.13778122 0.0066924794 0.38191536
-0.024694253 -0.07226363 0.0030616987 -0.4868514 0.10182377 -0.08243095 -0.0068672956 -0.6713793
0.21489497 0.25863922 0.08460402 0.28488955 0.16876668 -0.1272771 -0.2741337 -0.037273444
-0.14745174 -0.10273225 0.17967166 -0.01780562 0.21541534 -0.2609119 0.41812748 -0.035617188
0.57792485 -0.23645061 0.2768055 0.23777151 -0.07435136 0.29260626 0.21083844 -0.3559469
0.052370876 0.09492014 1.013814 0.024672892 0.025141774 -0.48133802 0.10565764 -0.6748314
-0.18292111 0.17036481 0.31023416 -0.56312656 0.63326883 0.058373045 -0.16287652 -0.13158566
0.19021916 -0.49530578 -0.14963837 -0.58466953 0.3737007 0.20441012 -0.90412074 0.019890785
0.037810728 0.032192145 0.10683235 -0.45525855 -0.1475784 0.051217478 0.0027396888 0.1380504
0.097805955 -0.11160552 0.22475266 0.06348402 -0.9017636 -0.24489975 0.011254113 0.120810054
-0.0020619163 0.24364825 -0.13411148 0.5220457 -0.15899527 -0.1187715 0.3840621 0.6233171
0.35773635 -0.11582365 -0.016231027 -0.32005152 -0.16747865 0.05046447 -0.5726816 0.28035188
0.20447232 -0.77842104 -0.120531075 0.32178944 0.05173627 -0.108894 0.26957008 -0.033097446
-0.17865686 0.2281319 -0.62431616 -0.02757823 -0.062166315 0.3631703 0.45749494 0.36402825
1.0208241 0.35092604 0.387712 -0.05161266 0.46306807 -0.03309953 -0.06680018 -0.19195515
0.117271654 -0.8808463 -0.1492247 -0.28338355 0.080015995 0.37078166 0.27240145 -0.088363335
-0.46460024 0.10764347 0.41768864 0.43208733 -0.38424802 0.30138856 -0.1342116 -0.27341133
0.03169371 1.1132021 0.14304505 -0.12858857 0.41812474 0.19330138 0.2578451 0.04712948
0.13038473 -0.12595925 -0.03918683 -0.41041437 -0.056517225 0.05464018 0.4126437 0.18778582
0.20470756 0.3857674 -0.30609903 0.18574227 0.09541532 0.027725505 0.1441936 0.40305224
0.43674076 0.33829528
00000000: c120 a6be 885d e1be e8e3 dbbe 697f 97be
00000010: c88e 8abd e822 10be 54f0 d5be 0457 e9bd
00000020: 9a06 3abe fb43 7ebe 11f6 de3e b43f a33e
00000030: 4333 d7bd f456 59bc d2a1 8fbe 59f4 0f3f
00000040: 259f 3d3d 661c 903e d4e4 4b3e 2915 bebe
00000050: 1908 bf3d be4f 33be 313c ed3e 67e3 7dbe
00000060: 7889 a639 8353 863f d337 43be 9d71 a53e
00000070: 6894 d53e b44b 833a dbc1 09bf d026 1b3e
00000080: a1a3 90bd ed74 223d 72ec bc3e f23d 86be
00000090: 00d5 bd3e c2b3 9e3e f581 ec3d e311 6d3d
000000a0: 57af 5cbd 7ab3 c13d f44e ac3e b725 c03e
000000b0: 11e7 ed3d 2c53 733e 0453 24be 53bd ea3d
000000c0: 6d56 72bf e459 e73e ace4 48bf 46bc 003e
000000d0: c002 623e 545b be3c 8c34 dd3c ddfd 0b3f
000000e0: 5a9c 5d3e c656 963e c31e 4c3d becc dc3e
000000f0: eebc 57bf 964f 12bd b030 303d ab48 a23b
00000100: 062e 6c3d 7cef 46bd 0545 92bd 4767 963e
00000110: c432 853e 5867 d93e 2303 95bf 2e09 083e
00000120: da2e b5b9 c10d cc39 b677 e53b e839 ea3e
00000130: bb2f 9abe a15b 563c c7d8 293d fc7e e03d
00000140: 632d 31be 8065 463d 7e0c e33d 38ef a4bd
00000150: 75bc 133e 8baf ddbf 42c2 68bd a38c 57bc
00000160: ed9b d83d 51ea d7bd e12f 96be 9483 00be
00000170: 76f8 dbbd 8516 0d3e 964c db3b 698a c33e
00000180: 9a4b cabc f4fe 93bd c8a6 483b 9644 f9be
00000190: fb88 d03d 8fd1 a8bd 0d07 e1bb 84df 2bbf
000001a0: 6d0d 5c3e 5c6c 843e df44 ad3d 0bdd 913e
000001b0: 2cd1 2c3e ee54 02be 415b 8cbe 0aac 18bd
000001c0: 97fd 16be 4965 d2bd d9fb 373e 17dd 91bc
000001d0: d795 5c3e 3f96 85be ce14 d63e 54e3 11bd
000001e0: e2f2 133f 1c20 72be 73b9 8d3e 607a 733e
000001f0: 8745 98bd 7dd0 953e 08e6 573e ac3e b6be
00000200: d882 563d 7e65 c23d a8c4 813f ce1e ca3c
00000210: 1ff6 cd3c f071 f6be 0863 d83d c0c1 2cbf
00000220: ac4f 3bbe 1d74 2e3e 03d7 9e3e 1029 10bf
00000230: e81d 223f 9318 6f3d 1ac9 26be 64be 06be
00000240: d0c8 423e b898 fdbe cd3a 19be e7ac 15bf
00000250: b355 bf3e e350 513e 7574 67bf 00f2 a23c
00000260: 6cdf 1a3d e9db 033d ebca da3d a617 e9be
00000270: cb1e 17be 6bc9 513d 5a8c 333b 165d 0d3e
00000280: 7d4e c83d 6f91 e4bd 9025 663e e903 823d
00000290: fbd9 66bf 00c7 7abe 2c63 383c 436b f73d
000002a0: 3721 07bb ed7e 793e 8554 09be c9a4 053f
000002b0: a8cf 22be 793e f3bd caa3 c43e b691 1f3f
000002c0: 3829 b73e f334 edbd eef6 84bc cbdd a3be
000002d0: 867f 2bbe d5b3 4e3d 439b 12bf 488a 8f3e
000002e0: 3161 513e 9a46 47bf ffd8 f6bd 96c1 a43e
000002f0: 69e9 533d d103 dfbd 1705 8a3e 3091 07bd
00000300: d3f1 36be 699b 693e 2fd3 1fbf bdeb e1bc
00000310: 1ba2 7ebd 75f1 b93e c73c ea3e e961 ba3e
00000320: 5daa 823f 94ac b33e 3082 c63e cc67 53bd
00000330: 4217 ed3e 5f93 07bd 88ce 88bd e48f 44be
00000340: 1f2c f03d 257f 61bf 5cce 18be a617 91be
00000350: 6ddf a33d 18d7 bd3e 3478 8b3e d6f7 b4bd
00000360: 15e0 edbe 2e74 dc3d 49db d53e 8d3a dd3e
00000370: 28bc c4be 9a4f 9a3e c46e 09be 92fc 8bbe
00000380: 43d1 013d 687d 8e3f 677a 123e b9ac 03be
00000390: 7214 d63e ccf0 453e 4604 843e d70a 413d
000003a0: 9383 053e 76fb 00be 5f82 20bd d521 d2be
000003b0: 9b7e 67bd 62ce 5f3d 0946 d33e ed4a 403e
000003c0: dc9e 513e 4e83 c53e 03b9 9cbe 3933 3e3e
000003d0: 1b69 c33d 9920 e33c 7da7 133e dd5c ce3e
000003e0: 7c9c df3e 0a35 ad3e

fc1.bias f4 [50]
-0.2584044 0.06463975 1.482644 -2.0036223 0.88587576 -2.5888827 -1.9295813 1.8338804
1.0242608 -3.519885 5.44843 -2.297034 4.3747053 1.3249613 1.9948138 1.5632807
3.3067844 2.5124352 4.3477526 -0.13299908 3.83939 1.9400389 2.3381052 1.5134622
-2.2808194 3.90887 -0.24062543 3.6299932 1.2516438 -1.2680924 4.6842675 4.084165
-0.29586092 -2.2932494 -3.3663745 -0.8443634 2.0293348 2.2643754 -1.2945081 0.19372742
-2.5099657 0.3756857 1.7447622 -1.943667 2.8677447 -3.5857599 1.2824488 1.6181872
-1.6231837 -2.037962
00000000: 954d 84be d861 843d 47c7 bd3f 593b 00c0
00000010: c1c8 623f 41b0 25c0 85fc f6bf 98bc ea3f
00000020: fa1a 833f cc45 61c0 8a59 ae40 9b02 13c0
00000030: 96fd 8b40 5598 a93f 0f56 ff3f 9519 c83f
00000040: 5ba2 5340 bdcb 2040 ca20 8b40 e930 08be
00000050: 91b8 7540 3253 f83f 84a3 1540 21b9 c13f
00000060: f2f8 11c0 ed2a 7a40 8366 76be cf51 6840
00000070: dd35 a03f da50 a2bf 85e5 9540 7bb1 8240
00000080: 157b 97be 99c4 12c0 ae72 57c0 3328 58bf
00000090: 9fe0 0140 87eb 1040 71b2 a5bf 7b60 463e
000000a0: 47a3 20c0 e059 c03e 5e54 df3f 15ca f8bf
000000b0: 2189 3740 177d 65c0 4827 a43f c220 cf3f
000000c0: 7cc4 cfbf f86d 02c0

fc2.weight f4 [25, 50]
-0.07997519 -0.03642311 -0.24527715 0.44748202 0.25876355 0.4279945 0.273729 -0.35562176
-0.0860492 0.9328292 -1.2040979 0.35770282 -2.7938128 -0.14360006 -0.792498 0.131048
-1.0318205 0.7290615 -0.80720776 -0.9695413 -1.3243467 -0.43591002 -0.6613841 -0.21377146
0.5710214 -0.78207064 0.23002921 -0.26517197 0.06577879 0.08369995 -2.0989468 -1.6370871
0.28657952 0.5065198 0.28413802 1.0536717 -0.11098075 -0.60065216 0.043433912 0.025773698
0.50396156 0.3944495 -0.16792718 0.14529333 -0.35942483 0.26776573 -0.62832105 -0.19816226
0.3236926 0.11089386 0.0027182251 0.09863146 0.30793816 0.2942536 0.6696287 -0.067262314
-0.40766847 0.07207736 0.0061496133 0.5715271 -0.7378609 -0.08875189 -2.300238 0.07329627
-0.893015 0.5076305 0.4539164 -1.1045723 -0.24076813 0.70726055 -0.5655741 0.32640496
0.40937623 0.2582995 -0.10231683 0.039325178 -0.34240836 -0.48735085 0.23716567 -0.3190738
-0.29813445 -0.14963816 0.6107677 -0.37399933 0.15638562 -0.14280231 0.07306038 -0.26987693
-0.38788086 0.0809137 0.0019509319 -0.47818694 0.15517825 -0.2327976 0.40818956 0.14702563
0.38084167 0.0992163 -0.23295727 -0.055692714 0.02045317 0.029969797 0.2086974 0.1615089
0.370811 0.012455852 -0.18009634 -0.0043538907 0.10935281 0.30230358 -0.6225938 0.19746165
-1.455293 0.116256505 -0.47933406 0.20016338 -0.25538838 -2.1344433 -0.37479705 0.750744
-0.40267012 0.15031411 -0.1068103 0.114161 0.13281327 -0.42964375 -0.03630822 -0.18351439
0.07756778 -0.020679679 -0.62420124 -0.2114003 0.10489092 -0.10268882 0.10766148 0.19171347
0.13436523 -0.36915466 0.03715595 -0.04348323 0.19024368 0.39560333 0.16574006 -0.008655004
0.22967921 0.034644324 -0.20464537 -0.091877915 -0.08111113 -0.08410214 -0.07155684 0.08294846
0.1955743 0.009609272 0.25454167 0.040350243 0.02099918 -0.100554086 -0.01659947 0.2200313
-0.36721146 0.010319215 -1.3729776 0.10990327 -0.9434401 0.13666575 -0.26036084 -0.7158498
-0.3854257 0.76849383 -0.2493662 0.0705885 -0.08647425 0.1181371 -0.11944303 -0.28883845
0.11171442 -0.25003254 -0.054122645 0.08014196 -0.6037273 -0.48115334 0.19692037 -0.015751816
0.10123053 -0.17422575 0.11746342 0.078552045 -0.49178815 0.030766746 0.17464806 0.3236714
0.05730559 -0.109088704 0.42626202 -0.02284538 -0.014756983 0.051057998 -0.17924424 0.16685106
-0.06428718 -0.06558751 0.2077154 -0.03122774 0.38560596 -0.0077779377 -0.14640945 -0.12835453
0.13549109 0.15504444 -0.7246802 0.04136087 -1.0288125 0.14317195 -0.4650153 0.077491194
-0.35210687 -0.2577314 -0.2991346 0.81822264 -0.4235781 0.15564203 -0.029361714 -0.08903018
-0.009077161 -0.32675156 0.022052519 -0.061950527 0.17069536 0.04503458 -0.5598997 -0.16125502
0.5048624 0.07350523 0.09516352 0.18415827 -0.026408404 -0.11882239 0.22709955 0.17384884
0.0867538 0.5053381 0.099811494 0.07551201 0.30378953 0.019755231 -0.023397263 0.026977107
-0.14532222 0.106536224 0.06593309 0.04542546 0.3434188 0.078228295 0.27990124 0.116106704
00000000: 08ca a3bd 6630 15bd ef29 7bbe 5d1c e53e
00000010: a87c 843e 1822 db3e 3526 8c3e 0e14 b6be
00000020: 903a b0bd e5cd 6e3f e11f 9abf d324 b73e
00000030: d4cd 32c0 e50b 13be 26e1 4abf 7231 063e
00000040: b212 84bf c6a3 3a3f 2ba5 4ebf dc33 78bf
00000050: 3184 a9bf 992f dfbe 7850 29bf e8e6 5abe
00000060: 752e 123f c835 48bf c78c 6b3e 9fc4 87be
00000070: 08b7 863d e16a ab3d 2555 06c0 128c d1bf
00000080: 8dba 923e 48ab 013f 8a7a 913e b7de 863f
00000090: e049 e3bd 57c4 19bf c2e7 313d 5d23 d33c
000000a0: a003 013f 49f5 c93e 1af5 2bbe c6c7 143e
000000b0: 8806 b8be 9718 893e a6d9 20bf 0ceb 4abe
000000c0: 09bb a53e 521c e33d 4024 323b 4aff c93d
000000d0: 12aa 9d3e 68a8 963e c96c 2b3f d3c0 89bd
000000e0: ecb9 d0be 4b9d 933d b282 c93b 9a4f 123f
000000f0: 74e4 3cbf 8dc3 b5bd 1937 13c0 5b1c 963d
00000100: a29c 64bf 13f4 013f bb67 e83e a062 8dbf
00000110: ec8b 76be 070f 353f 77c9 10bf 8d1e a73e
00000120: c399 d13e d53f 843e 7c8b d1bd 7013 213d
00000130: 2650 afbe 0d86 f9be 8fdb 723e a45d a3be
00000140: 14a5 98be bf3a 19be 465b 1c3f d77c bfbe
00000150: 8d23 203e c53a 12be aea0 953d 4f2d 8abe
00000160: 5298 c6be 15b6 a53d 69b6 ff3a ebd4 f4be
00000170: 0ce7 1e3e 7e62 6ebe 39fe d03e e38d 163e
00000180: aefd c23e ea31 cb3d 5a8c 6ebe 0b1e 64bd
00000190: 688d a73c 3883 f53c c5b4 553e 9762 253e
000001a0: f0da bd3e a113 4c3c 2d6b 38be 15ab 8ebb
000001b0: 5ef4 df3d 89c7 9a3e 4f62 1fbf 6333 4a3e
000001c0: 0b47 babf e417 ee3d 466b f5be a1f7 4c3e
000001d0: 44c2 82be b89a 08c0 66e5 bfbe c230 403f
000001e0: c72a cebe f1eb 193e 5cbf dabd 3ecd e93d
000001f0: 3400 083e 44fa dbbe eeb7 14bd 32eb 3bbe
00000200: dbdb 9e3d 6e68 a9bc a7cb 1fbf 5279 58be
00000210: 0dd1 d63d 844e d2bd 9f7d dc3d 8950 443e
00000220: 0a97 093e d701 bdbe d630 183d 791b 32bd
00000230: 3dcf 423e 858c ca3e c3b7 293e b8cd 0dbc
00000240: 0731 6b3e 35e7 0d3d 8e8e 51be 7d2a bcbd
00000250: 981d a6bd be3d acbd 648c 92bd e2e0 a93d
00000260: a144 483e 3570 1d3c 4953 823e 4c46 253d
00000270: 7906 ac3c 4def cdbd 9dfb 87bc e34f 613e
00000280: 2403 bcbe ed11 293c bbbd afbf f714 e13d
00000290: 4a85 71bf 1bf2 0b3e 044e 85be ef41 37bf
000002a0: 8456 c5be 03bc 443f da59 7fbe b490 903d
000002b0: 6919 b1bd ddf1 f13d 8c9e f4bd a2e2 93be
000002c0: 88ca e43d 4404 80be b5af 5dbd 7821 a43d
000002d0: df8d 1abf bb59 f6be 7ea5 493e f409 81bc
000002e0: f451 cf3d 3c68 32be a990 f03d e5df a03d
000002f0: a8cb fbbe 8b0a fc3c f1d6 323e 42b8 a53e
00000300: 44b9 6a3d e669 dfbd 043f da3e 3c26 bbbc
00000310: 46c7 71bc 3122 513d cd8b 37be 01db 2a3e
00000320: ffa8 83bd bf52 86bd 59b3 543e 51d1 ffbc
00000330: 256e c53e 12de febb 5cec 15be 5f6f 03be
00000340: 2dbe 0a3e f8c3 1e3e a484 39bf 046a 293d
00000350: 21b0 83bf ab9b 123e 7c16 eebe b4b3 9e3d
00000360: 5a47 b4be 5ff5 83be 2c28 99be 0a77 513f
00000370: 3bdf d8be a060 1f3e fa87 f0bc 7455 b6bd
00000380: 5fb8 14bc fb4b a7be 7ca7 b43c d6bf 7dbd
00000390: c4ca 2e3e 2e76 383d 9655 0fbf 0920 25be
000003a0: aa3e 013f e989 963d 17e5 c23d fc93 3c3e
000003b0: 7056 d8bc 2759 f3bd c98c 683e 6e05 323e
000003c0: faab b13d d65d 013f f869 cc3d 0aa6 9a3d
000003d0: 4d8a 9b3e b9d5 a13c 9eab bfbc 18ff dc3c
000003e0: 59cf 14be aa2f da3d ee07 873d 0c10 3a3d
000003f0: 97d4 af3e 2836 a03d 374f 8f3e 5ac9 ed3d

fc2.bias f4 [25]
-2.589322 1.5905727 0.4950921 0.22423495 0.19147062 0.6321974 0.35696408 -0.31603968
0.11566334 0.12361729 -0.5512292 0.027785689 -0.23359111 0.88030994 -0.06087494 0.837512
0.0975725 -2.6603487 -0.16142215 0.018118668 0.16234441 0.8423275 -0.30604595 0.17887701
0.32035026
00000000: 74b7 25c0 e397 cb3f b67c fd3e d99d 653e
00000010: e010 443e b0d7 213f ffc3 b63e f4cf a1be
00000020: e7e0 ec3d 102b fd3d 5b1d 0dbf d09e e33c
00000030: 8232 6fbe fe5b 613f 0058 79bd 3067 563f
00000040: 17d4 c73d 2743 2ac0 d94b 25be 9a6d 943c
00000050: 9d3d 263e c6a2 573f 0eb2 9cbe 892b 373e
00000060: f304 a43e

fc3.weight f4 [1, 25]
-1.923753 0.8963133 0.6247077 0.5420945 0.2786329 0.5185067 0.34755376 0.47331077
-0.1656447 0.06472146 -0.30933434 0.120015666 0.60412747 1.4414595 0.017219588 0.8482295
-0.18314317 -1.5689652 -0.30072728 0.3251499 0.27698454 -1.0192429 -0.1752729 0.25807244
0.3985403
00000000: 8a3d f6bf ca74 653f d8ec 1f3f b5c6 0a3f
00000010: f9a8 8e3e dbbc 043f 91f2 b13e ca55 f23e
00000020: c49e 29be af8c 843d 1261 9ebe c6ca f53d
00000030: 19a8 1a3f bf81 b83f 1810 8d3c 9225 593f
00000040: e289 3bbe dad3 c8bf edf8 99be 0c7a a63e
00000050: ebd0 8d3e 8d76 82bf bd7a 33be 1222 843e
00000060: 790d cc3e
